models/ImgClass-Quanvolv.pth (torch, 20377 bytes, 8 tensors)

conv.weight f4 [4, 1, 4, 4]
00000000: 5fa8 e63c ce88 1d3f d452 4c3f d35c 0e3f
00000010: 3d7f 5f3e a746 533e fd45 503f 47e3 4b3f
00000020: 637e 703d 66e3 383e 5904 e63e fa2a 993e
00000030: b468 11bf f110 05bf 80e8 bfbe 7f7b 3dbe
00000040: f4f6 583f 219f 423f 4b36 46be 4db2 48be
00000050: 3c7d 2b3e b9a8 4d3e b84b 9abd 3aeb 29bf
00000060: edbb dcbe aad5 49bf e39e 1ebf 71a1 81bf
00000070: 442f 13bf cf35 72bf 4a9e 36bf bfbb 43bf
00000080: 2539 893f e968 643f 13a2 733f 1143 8f3f
00000090: c22d 7d3f af7c 783f bfc3 8f3f ed02 153f
000000a0: 9c00 873f a4cb 7e3f db1d 2b3f 3eb4 983e
000000b0: 3328 8c3e d607 f33e 9ab0 0a3f f6d4 753f
000000c0: 587d 2ebe ba6d 22be 6312 2b3d 9855 11be
000000d0: 7972 8fbe c95c eabe fd15 44be a68d 8c3e
000000e0: b3e7 2abf 6c9d 42be 4264 d13e 7361 703e
000000f0: 31d2 21bf 2c49 8cbe f690 bf3e 1893 003f
0.028156457 0.6153687 0.79813886 0.5561039 0.21825881 0.2063242 0.81356794 0.7964367
0.05871428 0.18055496 0.44925192 0.299156 -0.5680039 -0.51978976 -0.3748207 -0.18504141
0.8475182 0.7602406 -0.19356649 -0.19599266 0.16746992 0.20083894 -0.075339735 -0.6637455
-0.43112126 -0.7884165 -0.6196119 -1.0127393 -0.57493997 -0.94613355 -0.7133528 -0.7645835
1.0720564 0.8922258 0.9516918 1.1192342 0.98897946 0.9706525 1.1231612 0.5820759
1.0547061 0.9952948 0.6684243 0.29825014 0.2737442 0.47466916 0.5417572 0.9602808
-0.17040002 -0.1586217 0.04176558 -0.14192808 -0.28017023 -0.45773914 -0.19149013 0.2745182
-0.66759795 -0.19005364 0.40896803 0.23474674 -0.6321135 -0.27399576 0.37415284 0.5022445

conv.bias f4 [4]
00000000: 7af8 9abe dd16 be3e ad5c 6ebf b8c5 e53b
-0.30267698 0.37126818 -0.9311016 0.0070120953

fc.weight f4 [10, 196]
00000000: b1a5 1bbc 6d86 6dbc f7a8 673d e02e 763d
00000010: 4b14 03bd 5512 893d aa2f c13c 43f0 26bd
00000020: 77e0 b9bc 9576 88bd 8685 553e df95 69ba
00000030: 16e4 fdbd 2de3 9c3d 9bd8 483d 8c9d 83bd
00000040: 9ae6 1ebd f4ed 163d e7b2 813e 744b eebc
00000050: 69bf 5ebd 2c26 6f3c 854b 06bd 066a 933e
00000060: d56b 5ebe 554e 10be 1ee1 3c3e d089 d1bd
00000070: 4828 763d 7519 543e d8a5 afbe 0a0c b9be
00000080: 631c 25bd bc2c 7b3e 9e08 f2bc 67bb 6f3d
00000090: 4301 f53b cc9b 823e 43c5 82bd be7a f9bd
000000a0: 5cea 6a3d 4aa0 a13d 19b8 903c a0b1 1e3d
000000b0: 085c c53c 4cec 96bd 0ee4 6d3d b7e7 37bb
000000c0: 4be0 e63a 2d22 b5bd 4bc4 45bd 7320 d03c
000000d0: 851d 83bd 9c1b 37bc bd13 aa3d 1c79 87bd
000000e0: fc19 47bd 30e3 f33c 34d8 babc acc0 3cbe
000000f0: 5cd7 a4be 89fc 03be 6818 013d 2a65 7bbd
00000100: 1736 283d 1ad2 68bd 23c1 703e 36a1 e83d
00000110: b8b0 30be a1ae a1bd eae4 7dbd ce61 5dbd
00000120: 5202 dfbd d521 093f 43bc ecbb 8520 88bd
00000130: d684 0abe f2a9 a6bd f700 95be 94a3 563d
00000140: e318 d2bd 40e5 3d3d c848 973d 0fce 63bd
00000150: 3ab3 f23b 27b3 debc 65a6 8ebd daa3 91be
00000160: 67f8 1c3e 76a3 6cbd c78c 51bd 622e ec3a
00000170: b382 afbb cabb 32bd c06e b0bc 26aa 55bd
00000180: 737f d4bd ce93 033b ee9a 973d 1724 053e
00000190: 9465 b53d e135 5a3c 7bb4 173e 25a1 0f3b
000001a0: c578 943d 8a02 023d 71e5 0a3e 9e75 76be
000001b0: 27f7 5c3e f4fe ca3e 7666 a8bd 58fa 883d
000001c0: 79a6 b33d 033d 573d db95 42bd a786 813d
000001d0: d411 3a3e 4f6e 933e 6730 843d 53ad a83b
000001e0: cc2f db3d 99f0 933e e2f2 31bf 38f9 20bf
000001f0: a75c e73e 769c 73bd 6029 dd3d a875 e73e
00000200: e6fa 8b3e 63b7 3dbf 1649 44be 4863 933e
00000210: 66a7 8e3d 60b0 8f3d c9d2 2d3e 29db 1c3f
00000220: 554a 46bd ab00 e5be 037a 123d ebcd bb3c
00000230: a9ab a33d e59d 703d 39ab 7f3c 5f9a 603c
00000240: 4a6a 3c3d e1f5 5b3d 4543 0e3e 58cc 453d
00000250: 5f75 4a3d 0cd3 403c 4744 11bd 0dc3 29bd
00000260: b353 d73c 2b34 eebc cb94 a2bc d488 823c
00000270: 6597 bb3c 43ec 9d3c 00b6 f4bc 37ec f33c
00000280: 5afd 563d d95c 8dbc 296c 753d fd7a e13d
00000290: 7929 11be 0e0a 4c3d 921a b83c a30c 31bd
000002a0: 152a 9abc fdab f13c 6b22 11be 5882 973d
000002b0: 3524 423e 66b0 613d 2e17 bd3c cb93 76bd
000002c0: 9a26 843d 347b ffbd 0a85 1c3e 494e 11bd
000002d0: 947e 083d 937d 8abd fac3 97bd 3a70 763d
000002e0: 401f 79ba 374e f0bc c576 9c3c 5b81 573d
000002f0: 876b 4f3d 9b3a 413d 22c0 07bc 1930 7bbc
00000300: cb95 6b3d 3bc6 603d 95d8 7dbd b939 71bd
00000310: b9e2 803d ca3c 1f3d 55cd 0c3e 22b5 623d
00000320: 48d5 8a3d 2c46 d73c 872b 333d 7cda 03bd
00000330: 0439 643d 4086 2d3e 3e0f ac3e 3e4f c23d
00000340: b9fa 753e 8795 aa3d 7715 b33d 042e e8bc
00000350: e0b7 f6bd d5a3 653d 1fb5 99bc 4d56 84be
00000360: 50d4 19bc 3056 063d eb55 393c 9594 94be
00000370: 4e18 3b3e 26ac 06be eac5 2b3d 9f4b ca3d
00000380: 1f6a 61bc 41f2 60bc b0ec 0ebe 9d89 aa3e
00000390: 623e 12be fd2d 29bd 4173 303d 8c29 9e3d
000003a0: 64b9 453b 9562 e1bb 0759 cd3d 10c8 c73c
000003b0: bd75 cd3b f336 c0bc 7dbf 0b3c 7474 b4bd
000003c0: 59e2 2d3d ce35 10be b9f8 3cbd 3825 1c3d
000003d0: b426 b33d 43d8 783c 7811 67bc 0127 b7bc
000003e0: a886 ca3c e2fd c43c 7cdf bcbc ae9e 833c
000003f0: 0d5d 7fbd 083a 8f3d c739 533e de12 b13c
-0.009499953 -0.014497382 0.05655762 0.060103297 -0.032001775 0.0669295 0.023582298 -0.040756475
-0.022690041 -0.06663243 0.20851716 -0.0008910577 -0.123970196 0.07660518 0.049034696 -0.06426534
-0.038794138 0.036848024 0.25331804 -0.029088713 -0.05438176 0.014596503 -0.032786865 0.28791827
-0.21720822 -0.14092381 0.1844525 -0.10231364 0.06009701 0.20712836 -0.34306216 -0.36141998
-0.040310275 0.24528784 -0.029545125 0.05852833 0.007476957 0.2550949 -0.06385281 -0.12181614
0.05735241 0.07891901 0.01766591 0.038743615 0.024091735 -0.07369289 0.058078818 -0.0028061697
0.0017614452 -0.08844409 -0.048282903 0.025406098 -0.06402115 -0.011176016 0.08304546 -0.06614897
-0.048608765 0.029771417 -0.022808172 -0.18432873 -0.32195556 -0.12889303 0.031517416 -0.061375774
0.04106721 -0.056840993 0.23511176 0.113588735 -0.17254913 -0.07894636 -0.061985888 -0.054048352
-0.108891144 0.5356725 -0.007224591 -0.066468276 -0.13527235 -0.08137883 -0.291023 0.052402094
-0.10258653 0.046361208 0.07386929 -0.055616435 0.0074066194 -0.027185036 -0.06965331 -0.2844532
0.15329133 -0.057773076 -0.051159646 0.0018019194 -0.0053561567 -0.04363612 -0.021537185 -0.05216422
-0.103758715 0.0020077112 0.07402597 0.13002048 0.08857265 0.01331851 0.14814942 0.0021916118
0.072495975 0.031740703 0.13564087 -0.24068305 0.21578656 0.3964764 -0.08222668 0.06688374
0.087719865 0.05254842 -0.047506195 0.06324511 0.18170863 0.28795096 0.064545445 0.005147615
0.10702476 0.288945 -0.69511235 -0.6288028 0.45187876 -0.059475385 0.10798907 0.45206952
0.27339858 -0.7410795 -0.19168505 0.28786683 0.069655225 0.07016063 0.1697494 0.6127191
-0.048410732 -0.44727072 0.03576089 0.022925338 0.07991726 0.05874433 0.0156047875 0.01370868
0.045999803 0.053701285 0.13892849 0.04829058 0.04942834 0.0117690675 -0.035465505 -0.04144578
0.026285028 -0.02907761 -0.01984634 0.015934385 0.022899339 0.019277697 -0.02987194 0.029775722
0.05248771 -0.017256187 0.059917603 0.11009786 -0.14175977 0.049814276 0.022473607 -0.043224942
-0.018818894 0.029500956 -0.14173286 0.07397908 0.18959124 0.055099867 0.023082342 -0.06019954
0.06452675 -0.12474671 0.15285125 -0.03547505 0.03332384 -0.06762233 -0.074104264 0.06016562
-0.0009503253 -0.02933417 0.019099602 0.052613597 0.050639655 0.04717503 -0.008285554 -0.015331292
0.0575159 0.054876547 -0.061974127 -0.05889294 0.06293244 0.038876332 0.13750203 0.055348523
0.067789614 0.026278578 0.043742683 -0.032190785 0.055718437 0.16945744 0.3360538 0.094877705
0.24021424 0.08329301 0.087443285 -0.028342254 -0.1204679 0.056064446 -0.018763123 -0.25847092
-0.009388998 0.03279704 0.011311988 -0.2901961 0.1827099 -0.13151607 0.041936792 0.09877705
-0.013758211 -0.013729633 -0.13957477 0.33308116 -0.1428161 -0.041303623 0.043078665 0.07722768
0.0030170316 -0.006878207 0.10026746 0.02438739 0.006270139 -0.023463702 0.008529541 -0.08811274
0.04245219 -0.14083025 -0.046135638 0.038121432 0.087476164 0.01518828 -0.014103286 -0.022357466
0.024722412 0.024046842 -0.023055784 0.016066875 -0.0623446 0.069934905 0.20627509 0.021615442

fc.bias f4 [10]
00000000: 8dc7 ffbd ed48 b2bc b40f 79bd f60b 6d3a
00000010: e39d a73a 3f07 8e3d ba36 88bd 1b05 d03d
00000020: 647f a4bd a590 e4bc
-0.12489233 -0.02176329 -0.06080599 0.0009042615 0.0012788143 0.06934976 -0.06651063 0.10157224
-0.0803211 -0.027901003

momentum_buffer f4 [4, 1, 4, 4]
00000000: 6b87 51bc b2a0 57bb aa66 4a3b 9ee6 92ba
00000010: 4aa9 34bc 146b 0fbb 1c80 dc3a ef1b 50bb
00000020: 0023 0cbc f835 6fbb 0e81 c3ba f2f7 1fbb
00000030: 182a f8bb 943e 1ebb c981 2cbb c9be 87bb
00000040: 792c 043c 9a03 533a 7e92 7eba f525 973b
00000050: af40 a63b 9b2f 023b 5c04 2a3c 919b 203c
00000060: e2e1 1a3c 8173 3a3c aafc 863c 0f94 113c
00000070: f94b b43c 1ed5 ac3c e4af 683c 9d20 883b
00000080: 931b 12bd 5135 61bc bc3b eb3b e31e f83b
00000090: 4323 e3bc 87fe 4cbc 416b b0bb ce93 61bb
000000a0: aa8f 88bc 3e07 37bc 9224 03bc dcdd 953b
000000b0: 61a6 4bbc dafa 3bbc 3cc2 5ebc aac2 ecbb
000000c0: a1a0 debb 4c42 e4bb 7f23 b5bb 2e40 f0bb
000000d0: 9462 24bc 1394 1abc 923c 20bc f619 26bc
000000e0: 21ea 0cbc 0c21 5fbc 12c6 94bc 7b1a 8cbc
000000f0: 4c5b a7bb e983 32bc 876a 82bc 488e 80bc
-0.012788634 -0.0032902178 0.0030883946 -0.0011207645 -0.01102669 -0.0021883892 0.0016822848 -0.003175493
-0.0085532665 -0.0036500674 -0.0014915781 -0.0024409262 -0.0075733773 -0.0024146186 -0.0026322475 -0.0041426164
0.008067244 0.0008049548 -0.000971116 0.004612679 0.005073629 0.00198648 0.010377016 0.009802715
0.009453269 0.011380077 0.016477901 0.008885398 0.022008883 0.021097716 0.014202092 0.0041542784
-0.035670828 -0.013745622 0.0071787518 0.0075720414 -0.027726775 -0.012511856 -0.0053838794 -0.0034420374
-0.016670067 -0.01117116 -0.0080043245 0.004573567 -0.012429805 -0.011473382 -0.013596114 -0.007225354
-0.006794051 -0.006965911 -0.005527913 -0.0073318696 -0.0100332685 -0.009434718 -0.009780066 -0.0101380255
-0.008600743 -0.013618719 -0.018160854 -0.01710247 -0.005107319 -0.010895708 -0.015919937 -0.015692845

momentum_buffer f4 [4]
00000000: 4e64 e23b 50a5 293d 127e 3fbd 9433 78bc
0.00690893 0.04141742 -0.04675109 -0.015149016

momentum_buffer f4 [10, 196]
00000000: b7c2 ceb9 b7c2 ceb9 77c3 ceb9 3cbe ceb9
00000010: 5dbe ceb9 db3a 02ba b7c2 ceb9 b7c2 ceb9
00000020: 84b3 0eba ebb9 02ba 21bc 7eb9 7dac 47b8
00000030: 87fd cc37 8437 cfb9 b7c2 ceb9 40e6 59ba
00000040: c31a bf39 1dd9 ed3a 9988 603a 583d d6ba
00000050: f528 e2b9 b7c2 ceb9 3c3e c539 5c6d a8ba
00000060: b63f cbb7 0a4d 873a b034 783a d530 6c3a
00000070: b7c2 ceb9 bbde c3ba 12f8 443b 16fe 68ba
00000080: 1c6d 21b9 6165 f8b9 dec9 dfb9 b7c2 ceb9
00000090: 8d7b 563a 24bb e13a 0971 143b a7de 3938
000000a0: b096 86ba d9c2 ceb9 b7c2 ceb9 eba3 c2b9
000000b0: 2ff7 59b9 fd97 10ba 61dd 0fba b7c2 ceb9
000000c0: b7c2 ceb9 ed2f 003a ed2f 003a d52e 003a
000000d0: d33e 003a 0932 003a 0b3d 9c39 ed2f 003a
000000e0: ed2f 003a 6529 8b3a 8fbe 92b9 f627 353a
000000f0: ee1c 2939 9efb e639 d404 003a ed2f 003a
00000100: 8632 d93a 0bc3 4ebb eb70 3dbb d0be c5ba
00000110: 69a2 f0ba e656 e939 ed2f 003a addc ab38
00000120: 83fa 7fba f2c8 c339 f9d9 19b9 9125 493a
00000130: 0293 103b ed2f 003a cfef 7e39 88c6 c7ba
00000140: 22ba eeba 8f7f 1839 30df 9b3a db29 bc39
00000150: ed2f 003a 0bf2 ddb5 4abd f8ba 0c4d a13a
00000160: 2df3 ed3a 7ff1 213a e82d 003a ed2f 003a
00000170: e8da ee39 020d 083a 47ed e639 44d8 a939
00000180: ed2f 003a ed2f 003a 6ae4 a0ba 6ae4 a0ba
00000190: cfe3 a0ba fbee a0ba eae4 a0ba bace 8fba
000001a0: 6ae4 a0ba 6ae4 a0ba a8f5 d5ba 928a 2fba
000001b0: 5bd8 89ba 1524 8939 23b7 2c39 8424 a0ba
000001c0: 6ae4 a0ba eb7a 10bb 0739 2b3b c0fb b73b
000001d0: d62c b33b 42d3 b4b6 5c40 9bba 6ae4 a0ba
000001e0: 541a 90ba 1e8c c23a e878 dfb9 0bea dc3a
000001f0: f16e 323b a253 fa3a 6ae4 a0ba 9afa b9ba
00000200: 61f2 0e3b 7db3 003b 620b 5d3a d688 82ba
00000210: 88c4 c9ba 6ae4 a0ba 5d8e 253a d6a9 f73a
00000220: cdfd d33b 8921 7aba 9ba0 3dbb b2e5 a0ba
00000230: 6ae4 a0ba b546 9eba d1f1 3dba 8f7d c0ba
00000240: 9579 ccba 6ae4 a0ba 6ae4 a0ba e00d 4437
00000250: e00d 4437 0639 4437 7ad6 4037 b0ad 4437
00000260: 7a38 f037 e00d 4437 e00d 4437 bf1e 64b9
00000270: 2933 7e38 c646 a739 5629 6cba 68b4 a4b9
00000280: 0378 1437 e00d 4437 2722 bbb9 276c ae38
00000290: 0bbc 8aba d4ea ea37 6960 2cba 9cae edb7
000002a0: e00d 4437 8d50 dd38 5fb6 b9ba b672 02b9
000002b0: d426 3fb8 3d89 4bba 9bed e9b9 1d0e 4437
000002c0: 2fd8 b1b7 5b63 a53a 1247 cfba 028e beb9
000002d0: 5dab 46ba 43d2 c038 e60d 4437 d655 3136
000002e0: 3e03 8739 ebb0 0cbb 8b65 25b9 170a 063a
000002f0: b727 4437 e00d 4437 bf97 b337 19d6 06b9
00000300: 91e9 0e38 047a 5438 e00d 4437 e00d 4437
00000310: 0684 22ba 1884 22ba 748a 22ba 4431 27ba
00000320: 1dfc f5b9 3f5c 26ba 0684 22ba 0684 22ba
00000330: 0f36 1dba c6fb cfba 65b8 f6b9 dbcd e1ba
00000340: 7cdb 2aba 0684 22ba 0684 22ba 5622 efb9
00000350: 277c ca3b 2cd3 25bc 698f 073c 4769 193c
00000360: 5a84 95b7 0684 22ba 0684 22ba c913 d03b
00000370: 61cb b73b 0ec1 1eba 24d2 21ba 0684 22ba
00000380: 0684 22ba 1144 25bb f8fb 6abb 022b bc3b
00000390: 7b43 1a3b cb5f 20ba 60da 21ba 0684 22ba
000003a0: 2133 aa3b cc90 fa3b 5b68 f1ba 5e08 a73b
000003b0: 7b07 ea39 2ada 11ba 0684 22ba 5c4b 28ba
000003c0: 04df 32ba ea13 de39 0b60 ef39 0684 22ba
000003d0: 0684 22ba 49d8 4d3a edd7 4d3a b0c1 4d3a
000003e0: 3045 423a 7a0c 883a cba2 483a 49d8 4d3a
000003f0: 49d8 4d3a c3a3 2837 8c57 09bc 5382 88b7
-0.00039436456 -0.00039436456 -0.00039437014 -0.00039433117 -0.00039433214 -0.00049678766 -0.00039436456 -0.00039436456
-0.000544362 -0.00049868104 -0.00024293411 -4.760594e-05 2.4436753e-05 -0.0003952348 -0.00039436456 -0.0008312203
0.00036450298 0.001814637 0.00085652765 -0.0016345186 -0.00043136594 -0.00039436456 0.00037621136 -0.0012849974
-2.4229153e-05 0.0010322642 0.00094683 0.0009009962 -0.00039436456 -0.0014943698 0.0030055088 -0.00088879594
-0.00015394803 -0.0004737778 -0.00042684277 -0.00039436456 0.00081818626 0.001722191 0.0022650382 4.43148e-05
-0.0010268297 -0.00039436555 -0.00039436456 -0.00037124692 -0.00020786816 -0.0005515812 -0.0005488005 -0.00039436456
-0.00039436456 0.0004889954 0.0004889954 0.0004889791 0.0004892174 0.00048902683 0.0002980012 0.0004889954
0.0004889954 0.0010617195 -0.00027989267 0.00069105567 0.00016127873 0.00044056488 0.0004883532 0.0004889954
0.0016570843 -0.003154936 -0.0028906416 -0.0015086774 -0.0018358949 0.00044505968 0.0004889954 8.1950195e-05
-0.0009764807 0.00037343014 -0.00014672418 0.00076731393 0.002206028 0.0004889954 0.00024312663 -0.0015241662
-0.0018213431 0.00014543369 0.0011892077 0.0003588934 0.0004889954 -1.6536227e-06 -0.0018977311 0.0012306287
0.0018154137 0.00061776483 0.0004889653 0.0004889954 0.00045557995 0.00051899266 0.00044045804 0.00032395322
0.0004889954 0.0004889954 -0.0012275104 -0.0012275104 -0.0012274924 -0.0012278253 -0.0012275253 -0.0010971643
-0.0012275104 -0.0012275104 -0.0016323822 -0.0006696369 -0.001051675 0.0002615756 0.00016471422 -0.0012217914
-0.0012275104 -0.002204592 0.002612652 0.0056147277 0.0054679913 -5.3890117e-06 -0.0011844742 -0.0012275104
-0.0010994175 0.0014842784 -0.00042623957 0.0016854418 0.002722677 0.0019098411 -0.0012275104 -0.0014189065
0.002181195 0.0019638233 0.0008432177 -0.0009958993 -0.0015393654 -0.0012275104 0.0006315464 0.001889522
0.0064694644 -0.00095417403 -0.002893484 -0.0012275486 -0.0012275104 -0.0012075516 -0.0007245811 -0.0014685857
-0.0015600199 -0.0012275104 -0.0012275104 1.1685741e-05 1.1685741e-05 1.1695787e-05 1.14940285e-05 1.172295e-05
2.8636528e-05 1.1685741e-05 1.1685741e-05 -0.00021755228 6.0605966e-05 0.00031905452 -0.0009008845 -0.0003141493
8.84943e-06 1.1685741e-05 -0.00035692865 8.3171115e-05 -0.0010584606 2.8004324e-05 -0.00065756455 -2.833391e-05
1.1685741e-05 0.00010553105 -0.0014168731 -0.00012440499 -4.557411e-05 -0.00077642855 -0.00044618253 1.1685796e-05
-2.1200713e-05 0.0012618111 -0.0015814027 -0.00036345428 -0.00075786357 9.194438e-05 1.1685746e-05 2.6425018e-06
0.00025751622 -0.0021467756 -0.00015773454 0.0005113198 1.1691757e-05 1.1685741e-05 2.1409125e-05 -0.00012858993
3.4072964e-05 5.0658375e-05 1.1685741e-05 1.1685741e-05 -0.00061994826 -0.0006199493 -0.00062004407 -0.00063778856
-0.0004691788 -0.0006346143 -0.00061994826 -0.00061994826 -0.000599713 -0.0015867881 -0.0004705816 -0.0017227487
-0.0006517691 -0.00061994826 -0.00061994826 -0.00045611215 0.006179351 -0.010121148 0.008273938 0.009363479
-1.7823815e-05 -0.00061994826 -0.00061994826 0.006350015 0.0056089615 -0.0006055989 -0.0006172976 -0.00061994826
-0.00061994826 -0.0025217573 -0.0035855751 0.0057424316 0.0023538757 -0.000611779 -0.0006174203 -0.00061994826
0.0051940833 0.0076466557 -0.0018417941 0.005097433 0.0004463753 -0.000556382 -0.00061994826 -0.0006419921
-0.0006823393 0.00042357977 0.0004565719 -0.00061994826 -0.00061994826 0.00078523584 0.0007852305 0.0007848991
0.00074108224 0.0010379695 0.00076536526 0.00078523584 0.00078523584 1.0051709e-05 -0.008382689 -1.627315e-05

momentum_buffer f4 [10]
00000000: b366 ac3a 3d28 093b 881e cfb9 a185 08bb
00000010: 4f78 8229 379c b03c 3e93 64bb d8ca 74bb
00000020: 0400 0000 67f0 a938
0.0013153165 0.0020928525 -0.00039504864 -0.0020831602 5.79403e-14 0.021558864 -0.0034877802 -0.003735235
6e-45 8.1033264e-05
